Machine_Learning_Microcontrller/Model/sine_model.tflite (tflite, 2444 bytes, 5 tensors)

arith.constant1 f4 [8]
0.11181539 0.00487084 -0.07549079 -0.01107555 0.17834525 0.097923934 -0.013885906 0.0579939
00000000: 78ff e43d 919b 9f3b ea9a 9abd 3976 35bc
00000010: 23a0 363e 588c c83d b681 63bc 038b 6d3d

arith.constant2 f4 [1, 8]
0.999037 0.58514255 -1.00765 0.19780566 -0.22288893 -0.99821883 -1.4329251 -0.9237143
00000000: e4c0 7f3f e7cb 153f adfa 80bf 918d 4a3e
00000010: ff3c 64be 458b 7fbf 176a b7bf 8a78 6cbf

arith.constant3 f4 [8, 8]
0.9596236 0.89880395 0.7226323 -0.81444204 -0.6863923 -0.76520467 0.9910706 0.9709798
0.23246014 0.54800814 -0.7698451 -0.2964021 0.1701352 0.38748285 0.25510275 -0.3820002
-0.35886672 0.034498096 0.95290196 0.24708869 0.29625204 -0.122684635 -0.061506037 0.32886744
0.35960513 -0.25363073 0.6527793 0.34367093 0.2590134 -0.43681568 0.5506583 0.45272702
1.1731728 -1.1494678 0.8641109 -1.1425061 0.49120533 -0.50559056 0.3390267 0.93356514
-0.7461792 -0.2391213 0.99955434 -0.7758161 -0.029428015 0.5951727 0.18540359 1.1598253
0.22980371 -0.4533079 0.38156763 -0.047635123 0.026159002 0.5765606 0.18348047 0.14761312
-0.43557826 0.41884318 -0.44811448 0.9456013 0.46162066 0.5610406 -0.6194087 -0.7164882
00000000: e4a9 753f 0418 663f 6efe 383f 467f 50bf
00000010: 68b7 2fbf 74e4 43bf ceb6 7d3f 2292 783f
00000020: 080a 6e3e 434a 0c3f 9214 45bf 04c2 97be
00000030: ec37 2e3e 2764 c63e d49c 823e 8895 c3be
00000040: 61bd b7be e04d 0d3d 62f1 733f d104 7d3e
00000050: 59ae 973e 1542 fbbd c1ed 7bbd 5061 a83e
00000060: 2a1e b83e e3db 81be 8b1c 273f a3f5 af3e
00000070: 689d 843e 4ea6 dfbe f1f7 0c3f d6cb e73e
00000080: 872a 963f c321 93bf 5f36 5d3f a43d 92bf
00000090: 447f fb3e 626e 01bf e894 ad3e 20fe 6e3f
000000a0: 9a05 3fbf 37dc 74be cbe2 7f3f e29b 46bf
000000b0: 0513 f1bc 3d5d 183f 70da 3d3e 2875 943f
000000c0: aa51 6b3e f917 e8be d55c c33e 0c1d 43bd
000000d0: 674b d63c 7a99 133f 4ee2 3b3e e527 173e
000000e0: 1d04 dfbe 9d72 d63e 436f e5be ed12 723f
000000f0: 8b59 ec3e 5ba0 0f3f 9291 1ebf c56b 37bf

sequential_1/dense_1/MatMul f4 [8, 1]
-0.43479544 1.0967079 -0.14520565 0.3025681 -1.0482584 0.4714391 -0.25296867 -0.28078294
00000000: 829d debe ed60 8c3f cab0 14be 35ea 9a3e
00000010: 552d 86bf 7760 f13e 1c85 81be c8c2 8fbe

sequential_1/dense_1/BiasAdd f4 [8]
0.13516304 -0.1480036 0.39074013 -1.2097765 0.029537734 -0.40621525 0.5129233 1.4843183
00000000: 2e68 0a3e 418e 17be 170f c83e f5d9 9abf
00000010: 1ef9 f13c 72fb cfbe f14e 033f 24fe bd3f
