Machine_Learning_Microcontrller/Model/sine_model.tflite (tflite, 2444 bytes, 5 tensors)

arith.constant1 f4 [8]
00000000: 7036 333e dc20 043e 92a6 8b3b 2158 3bbe
00000010: 7121 61be e586 41be 029e 4ebd 7541 d73c
0.17501235 0.1290316 0.0042618 -0.18295337 -0.21985413 -0.18899114 -0.050443657 0.02627633

arith.constant2 f4 [1, 8]
00000000: cf5a 263e 63d6 5f3f a174 c63d 46b8 83bf
00000010: 3038 f73e 0610 6cbf d1b5 6ebe 17af 90bf
0.16245578 0.87436503 0.09690214 -1.0290611 0.48285055 -0.9221195 -0.23311545 -1.1303433

arith.constant3 f4 [8, 8]
00000000: ad32 56be 607e 26be 60eb 363e 8673 d83d
00000010: 8936 7dbe 55dc 043d 498c a8bc d098 9cbe
00000020: d994 cb3c 85c0 0540 73c8 89be b285 4abe
00000030: f7a4 333e fefa d4bd 0a88 b53d 12d9 8e3e
00000040: 8085 6f3e 8ea8 a13e 0f82 313e 514a 9cbe
00000050: ffa2 dfbe 661a 49bf f2c7 9c3d e413 833d
00000060: f138 14bf fb87 7dbf 089a f43e 0062 433f
00000070: 239a 09be 2aa7 fdbd 4d06 c93e 07a8 bc3e
00000080: 23b1 5fbf ab7e ed3e 970b 423f 4d8e 10bf
00000090: f3a3 66be 990b 66be bfcd acbe 9b7c 24bf
000000a0: 7e32 10bf 7b6f 71bf afa8 a23e c812 113f
000000b0: 21b3 83be a598 51be 335d 103e bb9e 6f3e
000000c0: 9acc 61bb 15b3 8a3d c64a 2f3f 0c83 833e
000000d0: 6add 97be c192 2abf 933d f23e caf9 8ebe
000000e0: dfbc a1be 394e 953f 93a9 563f 09b5 083f
000000f0: 8f7c 7ebf 55c9 21bf a6eb 5c3f 0dc3 013f
-0.20917769 -0.16259146 0.17863226 0.10568909 -0.24727835 0.032436687 -0.020574706 -0.30585337
0.02485125 2.0898755 -0.26910743 -0.19777563 0.17543398 -0.103994355 0.08863838 0.27899987
0.2339077 0.3157391 0.1733477 -0.3052545 -0.43679044 -0.78555906 0.07655324 0.06400278
-0.57899386 -0.99035615 0.47773767 0.7632141 -0.13437705 -0.123854 0.3926262 0.36846945
-0.87379664 0.46385702 0.75798935 -0.56467134 -0.22523479 -0.22465362 -0.33750722 -0.6425263
-0.56327045 -0.9431073 0.3176932 0.5666928 -0.25722602 -0.20468386 0.14098053 0.23400395
-0.0034454227 0.067724384 0.6847347 0.25685918 -0.29661113 -0.6663018 0.47312602 -0.2792495
-0.3158941 1.1664497 0.838525 0.5340124 -0.9940881 -0.63197833 0.8629707 0.5068825

sequential_1/dense_1/MatMul f4 [8, 1]
00000000: 8c53 04bf 0590 a43e b0bd d03e 3b48 41bf
00000010: 0c18 acbe 1e00 883f 0768 9d3e caa3 4bbf
-0.5168998 0.32141128 0.4076972 -0.7550084 -0.33612096 1.0625036 0.3074343 -0.795468

sequential_1/dense_1/BiasAdd f4 [8]
00000000: e08e 653f c3fe e2bf 5c51 ebbe 9770 19be
00000010: 89d1 ea3e 8f6b abbe ebdb a7be 0258 de3e
0.89671135 -1.7733997 -0.4596051 -0.14984356 0.45862988 -0.33480498 -0.32784972 0.4342652
